TicTacToe/checkpoints/session1/nnet14200.pt (torch_old, 682565 bytes, 154 tensors)

convBlock.conv.weight f4 [64, 3, 1, 1]
00000000: befe 2a3c 7069 2e3c bf97 88bc c3b4 923b
00000010: 49d4 153f e062 ddbc bf2e 0000 fd1a 0000
00000020: 0f97 0080 eea6 0000 1022 0080 4c06 0000
00000030: a504 0100 ad25 0000 0b1b 0000 2db8 223d
00000040: 8d20 01bd b7ab cd3c 402b 0080 d501 0000
00000050: 064a 0000 e5a3 0080 f507 0000 958d 0000
00000060: addf 203c d37c 203c 0194 bebc 20e8 403c
00000070: 8105 0a3c 6629 bbbc 304d 0080 4b8c 0000
00000080: 4b84 0080 6089 0000 15d1 0000 b013 0080
00000090: 609b 0000 0d52 0000 9831 0000 17cf 043f
000000a0: 14b8 0cbd 6cf4 9f3d b706 0180 f430 0000
000000b0: 8da1 0080 d548 c93c 6181 0fbc 9cda 503c
000000c0: 2f81 d43b c081 27bb 2adf c93c a276 52be
000000d0: 9b0b c8bd 64f1 333e 2289 0080 0843 0080
000000e0: 1343 0000 a22b 0000 a007 0100 b64b 0000
000000f0: be69 0000 e15f 0000 4d2a 0080 6602 313c
00000100: 3ad1 063c e2f3 5ebc f536 13bd 81d3 80bd
00000110: 7afb cabd f128 ee3b 1dfa c83e 9a4a fabc
00000120: 4d3a 0080 8b25 0080 8514 0080 1a7c 85bc
00000130: a073 6b3b 7fa0 c439 4010 0000 e555 0080
00000140: ec38 0080 0329 0080 97b8 0080 602a 0080
00000150: 1c07 0000 723b 0080 1808 0000 368d cabc
00000160: a2bc f6bc 36ab 013d cf90 0080 3984 0000
00000170: 4336 0080 01bf 183d 19f3 cfbb 663c 1a3c
00000180: 703b 0000 0762 0080 9038 0000 5775 0000
00000190: 632b 0000 8329 0000 6f08 0000 a802 0000
000001a0: 2d43 0000 9f54 0000 1910 0000 d352 0080
000001b0: f596 0000 6110 0080 9d04 0100 942e 0dbc
000001c0: 7e16 1d3f 2722 edbc 682c 0000 8479 0080
000001d0: 5270 0080 d494 aabb 7fac f93b 8445 d63a
000001e0: 185c 0000 e109 0080 6f8a 0080 e2f2 11bb
000001f0: 4a93 7fbc b088 a2bd d73b 0000 0131 0000
00000200: bd09 0000 96e1 323f 22aa 22bc b4c0 56bc
00000210: 0e2e 0000 7a0c 0000 5b2c 0080 ba3d 4abc
00000220: 6854 01bc 4b51 b43c a835 203b ac74 12bb
00000230: ab44 ac3a 5e1c a83c ccbc 853c d4a8 0cbd
00000240: 5ff6 473c f670 0c3c 3c9f 94bc 69b6 0000
00000250: 448a 0080 8497 0000 0f11 0080 0d95 0080
00000260: dd0a 0000 103a 1a3c 5982 8a3b f5ee 9b3c
00000270: 2b52 0080 f897 0080 3352 0080 9b23 0080
00000280: 7517 0000 0190 0080 ee01 0080 5358 0000
00000290: ad18 0080 0e9b 053a 5619 933c 5f17 cd3b
000002a0: 848c 0000 108e 0080 5897 0080 604f 0000
000002b0: 7b1f 0080 0515 0000 9360 3d3c 8d6c ea37
000002c0: 3b57 963c 7895 0000 022b 0080 9386 0080
000002d0: 95ef ce3c 6a32 51bb 891e 78bc fd27 0080
000002e0: 8b7e 0080 840e 0000 f090 0080 f97f 0000
000002f0: f18c 0000 5afc 97bc 2b4c 8fbc 9f8b 9c3c
0.010436712 0.010645255 -0.01667392 0.004477115 0.58527046 -0.027024686 1.677e-41 9.682e-42
-5.419e-41 5.9883e-41 -1.222e-41 2.259e-42 9.3502e-41 1.3516e-41 9.701e-42 0.039726425
-0.031525183 0.025106294 -1.5515e-41 6.57e-43 2.6555e-41 -5.8794e-41 2.854e-42 5.079e-41
0.009818953 0.009795385 -0.023263933 0.011774093 0.008424164 -0.022846889 -2.769e-41 5.0328e-41
-4.7458e-41 4.9281e-41 7.5005e-41 -7.063e-42 5.5738e-41 2.9434e-41 1.7791e-41 0.51878494
-0.034355238 0.07810292 -9.4244e-41 1.7561e-41 -5.7954e-41 0.024570862 -0.008758874 0.012747433
0.0064851264 -0.0025559515 0.024642546 -0.20553067 -0.097678386 0.17572552 -4.9194e-41 -2.4046e-41
2.4062e-41 1.5653e-41 9.4571e-41 2.716e-41 3.7933e-41 3.4395e-41 -1.5175e-41 0.0108037945
0.008228594 -0.013607951 -0.035941083 -0.06290341 -0.099112466 0.007268064 0.3925332 -0.03055315
-2.0914e-41 -1.3468e-41 -7.361e-42 -0.016294528 0.0035927072 0.00037503612 5.83e-42 -3.0813e-41
-2.042e-41 -1.4712e-41 -6.6218e-41 -1.5201e-41 2.55e-42 -2.1325e-41 2.903e-42 -0.024725538
-0.030119244 0.03165742 -5.1948e-41 4.7433e-41 -1.9465e-41 0.03729153 -0.006346118 0.009413814
2.1322e-41 -3.5166e-41 2.0291e-41 4.2094e-41 1.5564e-41 1.4892e-41 3.025e-42 9.53e-43
2.4098e-41 3.0356e-41 5.775e-42 -2.9712e-41 5.4153e-41 -5.876e-42 9.349e-41 -0.008617062
0.61362445 -0.02894695 1.593e-41 -4.3592e-41 -4.0293e-41 -0.00520573 0.00761944 0.0016347622
3.3037e-41 -3.544e-42 -4.966e-41 -0.0022270014 -0.015599081 -0.07936227 2.1466e-41 1.7579e-41
3.493e-42 0.69875467 -0.009928258 -0.013107467 1.6521e-41 4.476e-42 -1.5912e-41 -0.012343818
-0.007893659 0.02201142 0.0024446044 -0.0022347374 0.0013143023 0.020521339 0.016325377 -0.034340695
0.012204736 0.008571854 -0.018142335 6.5436e-41 -4.96e-41 5.4354e-41 -6.12e-42 -5.347e-41
3.897e-42 0.009413257 0.0042269644 0.019034842 -2.9476e-41 -5.4516e-41 -2.9488e-41 -1.2773e-41
8.415e-42 -5.1659e-41 -6.92e-43 3.1685e-41 -8.852e-42 0.00050966523 0.017956417 0.0062588896
5.0408e-41 -5.0962e-41 -5.4292e-41 2.8474e-41 -1.1293e-41 7.54e-42 0.01155867 2.7945522e-05
0.018352142 5.3619e-41 -1.5428e-41 -4.8276e-41 0.025260726 -0.0031920918 -0.015143999 -1.4345e-41
-4.5395e-41 5.207e-42 -5.1994e-41 4.5908e-41 5.056e-41 -0.018552948 -0.017492374 0.019109545

convBlock.bn.weight f4 [64]
00000000: 5ad6 563d d24c 5c3f 8a05 0100 262b 0080
00000010: ad7d 0000 2ada 333d 5bab 0000 f731 0080
00000020: 51eb 4d3d fbb5 5b3d 7b8c 0000 7d73 0080
00000030: d297 0000 5c61 343f 733d 0000 6493 c23c
00000040: 0abf e63c f364 4e3f 0390 0000 7940 0000
00000050: 9108 0000 25fe dc3c d247 323f 8be0 1a3f
00000060: d63f 0000 298d 88bc 8e2e 0080 db50 0000
00000070: 4113 0080 88b6 83bd 64af 0080 6e2d ec3c
00000080: a902 0000 5d33 0080 bf14 0000 4194 0080
00000090: 895a 0000 bb15 743f cb05 0100 e21c aeba
000000a0: 7229 0000 2ce1 893d 0707 0000 d2ef b13f
000000b0: 4c3e 0080 77d2 21bd 1fed 24bb 33b0 f53d
000000c0: f1c4 313d 0427 0080 ca11 0080 86dd e43c
000000d0: e17a 0000 f74e 0080 f740 0000 a02e e43c
000000e0: 98b8 0080 e707 0180 bf05 b83c 147e 0080
000000f0: ea34 463d 5d8b 0080 5712 0000 7410 a73c
0.052450515 0.8605472 9.3823e-41 -1.5479e-41 4.5084e-41 0.04390923 6.1471e-41 -1.7924e-41
0.050273243 0.053640347 5.0395e-41 -4.143e-41 5.4463e-41 0.7046106 2.2044e-41 0.023751922
0.028167266 0.80622786 5.1662e-41 2.3128e-41 3.073e-42 0.026976654 0.6964084 0.60498875
2.29e-41 -0.016668873 -1.67e-41 2.9005e-41 -6.907e-42 -0.064312994 -6.2918e-41 0.028830256
9.54e-43 -1.8426e-41 7.442e-42 -5.3183e-41 3.2478e-41 0.9534566 9.3914e-41 -0.0013283754
1.4868e-41 0.06732401 2.521e-42 1.3901312 -2.2348e-41 -0.039507356 -0.002516575 0.11996498
0.04340071 -1.3996e-41 -6.382e-42 0.027937662 4.408e-41 -2.8327e-41 2.3305e-41 0.027854264
-6.622e-41 -9.467e-41 0.022463677 -4.5228e-41 0.048390307 -4.9994e-41 6.579e-42 0.020393588

convBlock.bn.bias f4 [64]
00000000: 8388 663c 97b9 b03e ce0a 0080 cc59 0080
00000010: 7b86 0080 f6df 713c 36a0 0080 3956 0080
00000020: 728b cf3c 2af3 a33c e465 0080 c075 0080
00000030: 60a4 0080 2bc9 473e 2f38 0080 b1ff f83c
00000040: 8cf7 153c 0ab5 fb3d 9a86 0080 6aae 0080
00000050: dd23 0080 df4a d03a e4f3 073e 1b4e 563e
00000060: c302 0380 1e23 aaba de9a 0080 874b 0080
00000070: 3577 0080 27fc 933b 5e20 0080 465c 1c3c
00000080: 344c 0080 3d61 2680 3129 0080 b175 0080
00000090: a382 0080 55c4 b73e 8532 0080 edb6 9d3b
000000a0: ac9b 0080 f802 8d3d 079a 0080 4c80 c13e
000000b0: 3f96 0080 43b8 673c e849 6539 9008 0a3d
000000c0: 41eb 153c 1d33 0c00 6543 0080 0d5e 363c
000000d0: 4991 0080 094d 0080 ac05 0080 094a ab3c
000000e0: e106 0080 bb59 2180 004e c13b be9f 0080
000000f0: 9117 f5b9 c58f 0080 3502 0080 b38d 5638
0.014070633 0.34516594 -3.876e-42 -3.2213e-41 -4.8243e-41 0.014762869 -5.7473e-41 -3.0931e-41
0.025335047 0.02001341 -3.6551e-41 -4.2241e-41 -5.8967e-41 0.19510333 -2.0155e-41 0.03039536
0.009153258 0.1229039 -4.8286e-41 -6.2568e-41 -1.2865e-41 0.0015891454 0.1327663 0.20928232
-2.76497e-40 -0.0012980436 -5.5556e-41 -2.7094e-41 -4.2763e-41 0.004516143 -1.1611e-41 0.009543484
-2.7337e-41 -3.524631e-39 -1.4777e-41 -4.222e-41 -4.6864e-41 0.35891977 -1.8123e-41 0.004813066
-5.5845e-41 0.06885332 -5.5255e-41 0.37793195 -5.3898e-41 0.0141430525 0.00021866674 0.033699572
0.009150327 1.120362e-39 -2.4177e-41 0.011130822 -5.2118e-41 -2.7635e-41 -2.035e-42 0.020909326
-2.468e-42 -3.06276e-39 0.005899191 -5.7305e-41 -0.000467476 -5.1575e-41 -7.92e-43 5.1153544e-05

convBlock.bn.running_mean f4 [64]
00000000: eebb 28bb 1ef5 0b3e ea32 0080 1a1c 0000
00000010: 9138 0000 a3d2 383c a518 0000 bb1f 0000
00000020: dac5 bfbb 5b0f babb 1e27 0080 993c 0000
00000030: 564a 0000 aa90 063e f85e 0080 2805 0a3c
00000040: ddb1 3e3c 8d0d 423c ed0e 0080 2c55 0000
00000050: dc1a 0000 d2ad ebba 1ac7 89bd e32c b23d
00000060: 731e 0080 153e 13bb b72b 0080 483c 0080
00000070: f909 0080 5852 bc3a 2b14 0080 049b 263c
00000080: 7c0c 0000 4235 0000 4b20 0000 990f 0080
00000090: 2f58 0000 97b0 0f3e a547 0080 f916 cc3a
000000a0: 652d 0080 a592 22bd db1c 0000 daba 083e
000000b0: 3b07 0080 4764 ae3b ef78 043a cf75 e5bb
000000c0: 8ce2 61bb 6c3b 0000 4324 0080 43ee 3a3c
000000d0: a35b 0080 6241 0080 ee0a 0000 88ea f23b
000000e0: b04a 0080 8511 0000 0553 2c3c 6428 0080
000000f0: 79d9 1cbb 9c21 0080 9941 0000 54cb b839
-0.002574678 0.13667724 -1.8265e-41 1.0081e-41 2.0292e-41 0.011280688 8.841e-42 1.1383e-41
-0.005852443 -0.0056781 -1.4033e-41 2.1738e-41 2.6667e-41 0.13141122 -3.4068e-41 0.008424081
0.011639086 0.011844051 -5.354e-42 3.0554e-41 9.635e-42 -0.001798088 -0.06727429 0.08699968
-1.0923e-41 -0.0022467424 -1.5682e-41 -2.1625e-41 -3.578e-42 0.0014367802 -7.235e-42 0.010168795
4.479e-42 1.9105e-41 1.1585e-41 -5.595e-42 3.1634e-41 0.14032207 -2.5701e-41 0.0015570811
-1.6284e-41 -0.039690632 1.0351e-41 0.13352528 -2.594e-42 0.0053220126 0.0005053421 -0.0070025693
-0.0034467308 2.1317e-41 -1.3008e-41 0.011409345 -3.2873e-41 -2.3455e-41 3.921e-42 0.007413212
-2.6793e-41 6.285e-42 0.01051784 -1.449e-41 -0.0023933335 -1.2057e-41 2.3532e-41 0.00035246706

convBlock.bn.running_var f4 [64]
00000000: 0fe6 4038 2f80 733d 0400 0000 0400 0000
00000010: 0400 0000 88e4 1f3a 0400 0000 0400 0000
00000020: 0726 8d38 9713 9038 0400 0000 0400 0000
00000030: 0400 0000 1adb 2d3d 0400 0000 ebbf 1439
00000040: 21ca 8738 4ab5 063c 0400 0000 0400 0000
00000050: 0400 0000 4fa6 1038 5184 ce3a 4b57 d93c
00000060: 0400 0000 0cf7 4d38 0400 0000 0400 0000
00000070: 0400 0000 1804 7a39 0400 0000 42ef 8139
00000080: 0400 0000 0400 0000 0400 0000 0400 0000
00000090: 0400 0000 cb00 883d 0400 0000 dd6c a537
000000a0: 0400 0000 1f26 293a 0400 0000 686c 953d
000000b0: 0400 0000 5cb6 8a38 83cf 2336 46fa 3539
000000c0: 66fc 5838 0400 0000 0400 0000 ac6c 3938
000000d0: 0400 0000 0400 0000 0400 0000 b86c 7e38
000000e0: 0400 0000 0400 0000 dadf 5038 0400 0000
000000f0: e499 0939 0400 0000 0400 0000 d195 c638
4.5990626e-05 0.059448417 6e-45 6e-45 6e-45 0.00060994225 6e-45 6e-45
6.730487e-05 6.870104e-05 6e-45 6e-45 6e-45 0.04244528 6e-45 0.00014185875
6.474951e-05 0.008221934 6e-45 6e-45 6e-45 3.4487162e-05 0.0015755986 0.026530882
6e-45 4.910589e-05 6e-45 6e-45 6e-45 0.00023843383 6e-45 0.00024783058
6e-45 6e-45 6e-45 6e-45 6e-45 0.06640776 6e-45 1.9720226e-05
6e-45 0.0006452519 6e-45 0.072960675 6e-45 6.61432e-05 2.440968e-06 0.00017354739
5.1733477e-05 6e-45 6e-45 4.4208646e-05 6e-45 6e-45 6e-45 6.065957e-05
6e-45 6e-45 4.9799542e-05 6e-45 0.00013122667 6e-45 6e-45 9.469281e-05

resBlock0.conv1.weight f4 [64, 64, 1, 1]
00000000: b0a1 b8bc 77e7 2abc 4f11 0080 977c 0000
00000010: 9408 0180 d460 59bc 3456 0000 f23b 0080
00000020: a9d3 98bc 27bb 97bc 2637 0080 158e 0000
00000030: b608 0080 e60f d13d 9ba6 0080 9f40 d53a
00000040: bf9d fb3b d124 953a 1631 0000 a02f 0080
00000050: 1707 0080 eb34 d7bb 2e86 bb3b 1a3d 07bc
00000060: a807 0180 d8bf 7d3b b902 0080 b229 0080
00000070: c017 0000 3301 f13b 663f 0080 d656 68bc
00000080: b240 0000 e231 0080 4c07 0080 d990 0000
00000090: 8389 0000 117a 23bc 7150 0000 0390 7cba
000000a0: da80 0000 cbe7 0f3b a81f 0080 767f 6f3e
000000b0: 5c4f 0000 64e0 86bc f0a7 60b9 74be d1bc
000000c0: 1e91 9dbc 981f 0000 011b 0000 6d4e 9f3c
000000d0: 3272 0080 1f52 0080 572f 0080 36e5 da3b
000000e0: 920f 0000 4d0f 0000 e0e1 cc3b 96d4 0000
000000f0: 2042 7e3b 0894 0080 3c32 0000 86d2 3fba
00000100: 5818 0080 9a0e 0080 3981 0080 1221 0000
00000110: d98b 0000 203b 0000 b57d 0080 cc08 0180
00000120: 1f51 0000 5187 0000 bf73 0000 6457 0080
00000130: 0ab7 0000 3c2d 0000 a089 0080 b189 0080
00000140: f47d 0080 d036 0080 7b82 0080 f8a5 0000
00000150: 6a07 0080 ab4d 0000 5802 0000 62a7 0080
00000160: bd29 0080 ae59 0080 e90b 0080 ae82 0000
00000170: e63b 0080 9682 0000 d924 0080 582b 0000
00000180: b184 0000 3751 0000 a68b 0080 0f1a 0080
00000190: 0c13 0000 554d 0080 102f 0080 a586 0080
000001a0: 0dd4 0000 1618 0080 b51a 0080 753b 0000
000001b0: e504 0000 4550 0000 6e8a 0000 8090 0000
000001c0: a734 0080 e742 0000 1626 0000 a410 0080
000001d0: 532d 0000 510c 0080 fe31 0000 bf30 0000
000001e0: 5013 0080 cd86 0080 06d4 0000 ec95 0000
000001f0: a217 0000 0339 0080 d10a 0000 b886 0000
00000200: 5ea5 0080 506f 0000 5130 0080 4653 0000
00000210: 2816 0000 3b11 0080 9227 0000 1429 0080
00000220: d7a6 0080 050b 0000 b1af 0000 3000 0000
00000230: dc97 0080 9744 0080 3813 0080 0031 0000
00000240: be7c 0000 d947 0000 b037 0080 1f32 0000
00000250: cf3b 0000 d311 0000 974f 0080 232e 0000
00000260: 0b2a 0080 4f31 0000 9c1f 0000 a194 0000
00000270: 7d80 0080 d37a 0080 db8a 0080 7086 0000
00000280: 5993 0000 3561 0000 520a 0000 f48f 0080
00000290: 748b 0000 270f 0000 c107 0080 fd83 0000
000002a0: bc15 0080 3708 0100 c785 0000 4062 0080
000002b0: 917e 0080 9e08 0100 d8d4 0080 2406 0000
000002c0: 5a9f 0000 e011 0000 3735 0000 157c 0000
000002d0: ad0c 0000 8b28 0080 f530 0080 db75 0000
000002e0: 2e39 0000 af2a 0000 f3d0 0080 5b2a 0080
000002f0: 830d 0080 fa56 0080 524e 0000 5431 0000
00000300: ba30 0000 a60f 0080 fab4 0000 1c93 0080
00000310: 0225 0080 870b 0000 1e8a 0000 33a7 0000
00000320: 1493 0080 6053 0080 dc8f 0000 6488 0000
00000330: 885c 0000 f38f 0080 1506 0080 f52b 0000
00000340: 9830 0080 7d97 0000 fa23 0000 e881 0080
00000350: 6881 0000 9285 0000 397f 0080 182e 0080
00000360: 0233 0080 e98f 0000 b820 0000 ad57 0000
00000370: d9d0 0080 9338 0080 342f 0080 3939 0000
00000380: 8855 0000 393b 0080 6d6d 0000 e580 0080
00000390: 6163 0000 fe50 0080 6309 0000 3b24 0080
000003a0: b74a 0080 1884 0080 2109 0000 5333 0000
000003b0: 8f07 0000 9949 0080 1b16 0080 0c8b 0080
000003c0: c335 0000 0ad1 0000 e618 0000 6a4b 0000
000003d0: 715f 0000 1b3b 0000 9d4e 0080 0157 0000
000003e0: 954d 0080 d62e 0000 d55b 0080 ee35 0000
000003f0: 692a 0000 8204 0080 4211 0000 f550 0080
-0.022538036 -0.010431162 -6.209e-42 4.4694e-41 -9.4913e-41 -0.0132677145 3.0924e-41 -2.1504e-41
-0.018655615 -0.018521858 -1.9784e-41 5.097e-41 -3.125e-42 0.102081105 -5.9767e-41 0.0016269869
0.007678717 0.001137877 1.7609e-41 -1.7085e-41 -2.543e-42 -0.0065675876 0.0057227826 -0.008254314
-9.4582e-41 0.0038719084 -9.77e-43 -1.4957e-41 8.52e-42 0.0073548793 -2.2743e-41 -0.01418086
2.3208e-41 -1.7895e-41 -2.618e-42 5.1962e-41 4.933e-41 -0.009977833 2.8857e-41 -0.00096344965
4.6223e-41 0.0021958228 -1.1356e-41 0.23388466 2.8469e-41 -0.01646442 -0.00021424866 -0.02560351
-0.019234236 1.1334e-41 9.687e-42 0.019446576 -4.0966e-41 -2.946e-41 -1.6982e-41 0.006680156
5.586e-42 5.489e-42 0.0062525123 7.6261e-41 0.0038796738 -5.3104e-41 1.802e-41 -0.0007317442
-8.733e-42 -5.238e-42 -4.6356e-41 1.1863e-41 5.0168e-41 2.121e-41 -4.5095e-41 -9.4991e-41
2.9101e-41 4.8542e-41 4.1522e-41 -3.135e-41 6.5662e-41 1.6227e-41 -4.937e-41 -4.9394e-41
-4.5183e-41 -1.9663e-41 -4.6808e-41 5.9538e-41 -2.66e-42 2.7862e-41 8.41e-43 -6.0046e-41
-1.4973e-41 -3.2171e-41 -4.273e-42 4.6879e-41 -2.1488e-41 4.6845e-41 -1.3218e-41 1.5549e-41
4.7601e-41 2.9134e-41 -5.0096e-41 -9.348e-42 6.833e-42 -2.7742e-41 -1.6883e-41 -4.8301e-41
7.607e-41 -8.64e-42 -9.58e-42 2.1329e-41 1.756e-42 2.8795e-41 4.9659e-41 5.1837e-41
-1.8888e-41 2.4e-41 1.3663e-41 -5.97e-42 1.6259e-41 -4.418e-42 1.7934e-41 1.7487e-41
-6.928e-42 -4.8357e-41 7.606e-41 5.3782e-41 8.478e-42 -2.0452e-41 3.88e-42 4.8328e-41
-5.9323e-41 3.9931e-41 -1.7333e-41 2.9873e-41 7.948e-42 -6.181e-42 1.4195e-41 -1.4736e-41
-5.9851e-41 3.953e-42 6.3026e-41 6.7e-44 -5.4477e-41 -2.4605e-41 -6.894e-42 1.7578e-41
4.4749e-41 2.5774e-41 -1.9977e-41 1.798e-41 2.1455e-41 6.394e-42 -2.8551e-41 1.6551e-41
-1.5082e-41 1.7689e-41 1.134e-41 5.3318e-41 -4.6093e-41 -4.4061e-41 -4.9812e-41 4.8227e-41
5.2858e-41 3.4871e-41 3.702e-42 -5.164e-41 5.0026e-41 5.436e-42 -2.782e-42 4.7348e-41
-7.797e-42 9.4782e-41 4.799e-41 -3.5245e-41 -4.5403e-41 9.4927e-41 -7.6354e-41 2.203e-42
5.7165e-41 6.412e-42 1.909e-41 4.4512e-41 4.547e-42 -1.4544e-41 -1.7562e-41 4.2279e-41
2.0512e-41 1.5312e-41 -7.4957e-41 -1.5194e-41 -4.847e-42 -3.1201e-41 2.8096e-41 1.7696e-41
1.748e-41 -5.614e-42 6.4922e-41 -5.2773e-41 -1.3276e-41 4.135e-42 4.9547e-41 5.998e-41
-5.2762e-41 -2.991e-41 5.1607e-41 4.8928e-41 3.3194e-41 -5.1639e-41 -2.182e-42 1.5769e-41
-1.7432e-41 5.4344e-41 1.2906e-41 -4.6602e-41 4.6422e-41 4.7916e-41 -4.5639e-41 -1.6535e-41
-1.8298e-41 5.1625e-41 1.1737e-41 3.1452e-41 -7.492e-41 -2.0295e-41 -1.6933e-41 2.0528e-41
3.0683e-41 -2.1245e-41 3.9255e-41 -4.6239e-41 3.565e-41 -2.9055e-41 3.367e-42 -1.2997e-41
-2.6803e-41 -4.7386e-41 3.275e-42 1.8412e-41 2.712e-42 -2.6402e-41 -7.93e-42 -4.988e-41
1.9286e-41 7.4989e-41 8.932e-42 2.7053e-41 3.4238e-41 2.1203e-41 -2.8201e-41 3.1211e-41
-2.7831e-41 1.6802e-41 -3.2943e-41 1.9346e-41 1.5214e-41 -1.617e-42 6.191e-42 -2.9042e-41

resBlock0.bn1.weight f4 [64]
00000000: 9b19 d33e ca0e 0000 3703 0080 ee53 0000
00000010: c97e 0080 8199 cf3c b040 fc3d c6a4 b03c
00000020: 4c73 0080 be51 0080 6e90 0000 9a32 0000
00000030: 9741 0000 b289 0000 6410 0000 a802 0000
00000040: 4408 0100 6e14 9cbd 3017 0000 4665 1e3e
00000050: 5f40 0080 0f5c 873d 7a05 0000 0680 a6bc
00000060: 0a74 2dbd 4b2e 0000 08a5 0000 6057 0080
00000070: 6d35 0000 aa19 0080 8195 0000 af30 ef3c
00000080: c969 0000 a31c 0000 b808 483d d50e cc3e
00000090: ccd3 f33d 137a 0080 3743 0000 1563 0000
000000a0: b14f 903e 9919 0080 be86 0000 8554 0000
000000b0: d520 0000 d835 0000 bd77 48be 2d30 0000
000000c0: 64fa a6bc e7a4 0080 084a 3637 28a6 0080
000000d0: 4901 0080 d0a8 9abc 03f9 903c cb8f 0000
000000e0: fa54 0080 9412 0080 d217 0000 96b7 0080
000000f0: 4534 0000 fb08 0080 1d4b 3d3d a80f 0000
0.41230473 5.305e-42 -1.153e-42 3.0108e-41 -4.5482e-41 0.025341751 0.12317026 0.021562945
-4.1361e-41 -2.9324e-41 5.1812e-41 1.8152e-41 2.3529e-41 4.9396e-41 5.88e-42 9.53e-43
9.48e-41 -0.07621084 8.318e-42 0.1546832 -2.3092e-41 0.06609356 1.965e-42 -0.020324718
-0.04234699 1.6607e-41 5.9202e-41 -3.1344e-41 1.9166e-41 -9.207e-42 5.3632e-41 0.029198019
3.7949e-41 1.0273e-41 0.04883644 0.39855066 0.119056314 -4.3792e-41 2.4112e-41 3.5544e-41
0.281858 -9.183e-42 4.8336e-41 3.032e-41 1.1778e-41 1.9315e-41 -0.19576927 1.7282e-41
-0.020383067 -5.9156e-41 1.0865282e-05 -5.9606e-41 -4.61e-43 -0.018879324 0.017696863 5.1583e-41
-3.0484e-41 -6.665e-42 8.545e-42 -6.5858e-41 1.8751e-41 -3.222e-42 0.04621421 5.616e-42

resBlock0.bn1.bias f4 [64]
00000000: be21 983d 4fa4 0080 ba48 0080 a485 0080
00000010: 065e 0080 7c68 3c3c db66 c13d 074d 033c
00000020: 3836 0080 6784 0080 ed0d 0080 a141 0080
00000030: 3704 0080 0f0b 0080 5058 0080 6137 0080
00000040: 7873 0080 a898 633c 0c1b 0080 1051 a538
00000050: 9c5c 0080 e70e 413c 0408 0080 4498 213c
00000060: 642a 9d3b cb44 0080 0428 0080 1027 0080
00000070: de05 0080 5641 0080 e482 0080 fcc5 923c
00000080: 4144 0080 2b29 0080 e0e6 983c 0c51 0d3e
00000090: 594e a23d 4912 0080 9391 0080 a491 0080
000000a0: d629 b53d 7791 0080 7e6b 0080 2a83 0080
000000b0: 697e 0080 eda3 0080 3d2e a43e 64a8 0080
000000c0: 0e7f 223b 7e39 0080 483f 8fba 5270 0080
000000d0: cba4 0080 3ce9 523c eff5 4b3c db4f 0080
000000e0: f35e 0080 5979 0080 e734 0080 8b08 0080
000000f0: ca66 0080 762a 0080 56ea 9c3b 1647 0080
0.07428311 -5.8943e-41 -2.609e-41 -4.7941e-41 -3.3729e-41 0.01149952 0.09443446 0.00801397
-1.945e-41 -4.7497e-41 -4.996e-42 -2.3543e-41 -1.512e-42 -3.967e-42 -3.168e-41 -1.9866e-41
-4.1422e-41 0.013891377 -9.703e-42 7.882912e-05 -3.3222e-41 0.011783338 -2.875e-42 0.009862963
0.004796313 -2.4678e-41 -1.4355e-41 -1.4013e-41 -2.105e-42 -2.3438e-41 -4.6955e-41 0.017916672
-2.4485e-41 -1.4768e-41 0.018664777 0.13800448 0.079251 -6.56e-42 -5.2222e-41 -5.2246e-41
0.0884587 -5.2183e-41 -3.8561e-41 -4.7053e-41 -4.5347e-41 -5.8805e-41 0.32066527 -6.0407e-41
0.0024794969 -2.0624e-41 -0.0010928893 -4.0293e-41 -5.9117e-41 0.01287299 0.012448772 -2.8647e-41
-3.4061e-41 -4.3531e-41 -1.8978e-41 -3.065e-42 -3.6874e-41 -1.5232e-41 0.004788677 -2.5501e-41

resBlock0.bn1.running_mean f4 [64]
00000000: 547e 2a3e aa2e 0080 3900 0000 7f55 0080
00000010: c0a2 0080 1d84 39bb 9c84 b5bd f2bb 3d3b
00000020: ff52 0080 16c1 0080 a653 0080 36bd 0000
00000030: 1813 0000 eb46 0080 f87b 0080 6f28 0080
00000040: 2808 0000 4d99 2bbd 4a1e 0000 c075 ab3d
00000050: c340 0000 494a 2c3b 348c 0000 0c35 e63b
00000060: e484 e53b ec38 0000 2b0f 0080 6068 0000
00000070: c304 0000 e825 0080 7173 0080 fbdc a0bc
00000080: c28e 0000 a629 0000 d4a6 f63c c5a5 7f3d
00000090: c752 a73c 0225 0080 e843 0080 efcf 0080
000000a0: a0ac 893e 8eb4 0000 bf7c 0000 085c 0000
000000b0: f919 0080 5241 0080 8d2d aa3d 330b 0000
000000c0: 1285 2e3a 9486 0000 a837 d237 5a65 0080
000000d0: ab9a 0080 32c8 50bc 6fda 933c d820 0080
000000e0: 6501 0000 3e77 0080 083d 0000 95dd 0080
000000f0: 3636 0100 682f 0000 9ab3 963c 1433 0000
0.16649753 -1.674e-41 8e-44 -3.067e-41 -5.8384e-41 -0.0028307505 -0.08863184 0.0028951135
-2.9773e-41 -6.9266e-41 -3.0007e-41 6.7876e-41 6.85e-42 -2.544e-41 -4.4472e-41 -1.4505e-41
2.926e-42 -0.041894246 1.0866e-41 0.083720684 2.3232e-41 0.0026289395 5.0295e-41 0.0070253666
0.007004367 2.042e-41 -5.441e-42 3.7443e-41 1.708e-42 -1.3598e-41 -4.1413e-41 -0.019636622
5.1212e-41 1.494e-41 0.030108847 0.06241395 0.020425214 -1.3276e-41 -2.436e-41 -7.4593e-41
0.26889515 6.4771e-41 4.475e-41 3.3015e-41 -9.317e-42 -2.3433e-41 0.08309469 4.018e-42
0.0006657402 4.8278e-41 2.5059868e-05 -3.6358e-41 -5.5484e-41 -0.012743043 0.018048493 -1.1782e-41
5e-43 -4.2776e-41 2.1894e-41 -7.9489e-41 1.11283e-40 1.7006e-41 0.018396188 1.8323e-41

resBlock0.bn1.running_var f4 [64]
00000000: 688a ed3d 0400 0000 0400 0000 0400 0000
00000010: 0400 0000 4762 2e39 4c3e 733c 440a 2039
00000020: 0400 0000 0400 0000 0400 0000 0400 0000
00000030: 0400 0000 0400 0000 0400 0000 0400 0000
00000040: 0400 0000 e2bd c73a 0400 0000 cc39 b73a
00000050: 0400 0000 d411 293b 0400 0000 f882 9239
00000060: e204 fb39 0400 0000 0400 0000 0400 0000
00000070: 0400 0000 0400 0000 0400 0000 635f cc39
00000080: 0400 0000 0400 0000 62fd af3b 7b3a 183e
00000090: e425 663c 0400 0000 0400 0000 0400 0000
000000a0: bbff 543d 0400 0000 0400 0000 0400 0000
000000b0: 0400 0000 0400 0000 9919 a13c 0400 0000
000000c0: 2ba0 6a3a 0400 0000 622a bb31 0400 0000
000000d0: 0400 0000 889d 533a e172 0c3a 0400 0000
000000e0: 0400 0000 0400 0000 0400 0000 0400 0000
000000f0: 0400 0000 0400 0000 d17e ae39 0400 0000
0.115986645 6e-45 6e-45 6e-45 6e-45 0.00016630544 0.014846396 0.00015262613
6e-45 6e-45 6e-45 6e-45 6e-45 6e-45 6e-45 6e-45
6e-45 0.0015239085 6e-45 0.0013979017 6e-45 0.002579798 6e-45 0.0002794487
0.0004787809 6e-45 6e-45 6e-45 6e-45 6e-45 6e-45 0.0003898098
6e-45 6e-45 0.0053707818 0.14866059 0.01404712 6e-45 6e-45 6e-45
0.052001696 6e-45 6e-45 6e-45 6e-45 6e-45 0.019665526 6e-45
0.00089502585 6e-45 5.4472347e-09 6e-45 6e-45 0.0008072485 0.00053576945 6e-45
6e-45 6e-45 6e-45 6e-45 6e-45 6e-45 0.00033282352 6e-45

resBlock0.conv2.weight f4 [64, 64, 1, 1]
00000000: cdb8 103c b312 0080 6984 0080 0d17 0000
00000010: 0e75 0080 18a6 19ba 50b9 26bc 5008 e5ba
00000020: ff71 0000 fc7b 0000 6432 0000 b25d 0000
00000030: 8d3b 0080 6d53 0000 ae89 0080 012e 0000
00000040: 0907 0180 a1b4 ce3b aa97 0000 8103 853c
00000050: de97 0080 7b17 6bbb 5451 0080 e7ea 18bb
00000060: 6e82 813a 3e15 0000 0d0a 0000 1124 0000
00000070: 9682 0080 d718 0080 9582 0000 1ec7 e1ba
00000080: 850d 0000 5629 0080 aa8d 503b 638f 08ba
00000090: c39c a63a ef36 0000 5c39 0000 6d8d 0080
000000a0: db7d e03b f94f 0000 8057 0080 4b3c 0080
000000b0: de85 0000 759b 0000 15bb e6bb 1737 0080
000000c0: 9382 e93a a627 0080 a934 8033 e108 0180
000000d0: c894 0080 85f4 603b 8dee a43a 7e39 0080
000000e0: ef97 0000 2d97 0000 1e2d 0080 e651 0080
000000f0: 5c5d 0000 360a 0000 2838 83bb 9307 0000
00000100: 2cf3 2dbc 834e 0080 9894 0000 b183 0000
00000110: 857b 0000 7deb 493a bebc be3b 5b18 13bb
00000120: 1a09 0000 0643 0000 b63b 0000 1306 0000
00000130: 4d0f 0080 cf9a 0000 3d29 0000 5108 0080
00000140: 0a37 0000 32d8 7cbb 2a8e 0080 83d0 bc3d
00000150: da26 0000 55a7 013b f787 0000 7bc9 913a
00000160: 9270 6a3b 1b7d 0000 0c3f 0080 b636 0080
00000170: ac39 0000 c8a8 0080 4415 0000 72fa db3b
00000180: f373 0080 c059 0080 8219 61bc 96c3 b6bc
00000190: 049c 96bb 1164 0000 cc90 0080 d372 0080
000001a0: 1a92 293e 2258 0000 547f 0080 3eb4 0000
000001b0: add1 0080 f540 0080 4cf8 0fbe ad15 0080
000001c0: 0c97 5dbc 0d05 0080 b45c 5e33 9637 0000
000001d0: 374c 0000 c735 8abb 0449 91b9 5857 0000
000001e0: d77b 0000 173a 0000 e91e 0080 f263 0080
000001f0: 0497 0000 9711 0000 7fa6 963b e73c 0000
00000200: 0e76 0080 890b 0080 ee0e 0080 bc8f 0080
00000210: 4b92 0080 4082 0080 ed89 0000 b5a8 0000
00000220: 760e 0000 f687 0000 580b 0080 d3a7 0080
00000230: 5483 0080 e17c 0080 eb36 0000 d91e 0000
00000240: e696 0000 c885 0000 a756 0080 b15a 0080
00000250: 2595 0000 409e 0080 482b 0000 130d 0000
00000260: 0c57 0080 3732 0080 468a 0000 4731 0080
00000270: 834e 0080 a28d 0080 1005 0180 4f81 0000
00000280: 122a 0000 ce38 0080 a717 0000 fad4 0000
00000290: 5c2e 0080 3695 0080 d840 0000 3621 0080
000002a0: 996f 0080 e115 0080 fb89 0080 fe0c 0000
000002b0: 2b90 0080 9589 0080 ca0e 0000 710f 0080
000002c0: b08b 0000 7a20 0000 2893 0080 3e55 0000
000002d0: 3a08 0080 c703 0000 5e55 0000 c6a7 0000
000002e0: 6bd4 0080 7c94 0000 20d1 0000 065b 0000
000002f0: 1a45 0000 0123 0080 cc08 0000 7407 0180
00000300: 3c57 0080 431b 0000 2580 0000 0d27 0080
00000310: f8a4 0080 d585 0080 8558 0000 ed1c 0080
00000320: f60c 0080 188e 0080 358d 0000 1b93 0000
00000330: b12f 0000 1417 0080 f55c 0000 8431 0000
00000340: 1d3a 0080 c034 0000 4f95 0000 6421 0000
00000350: 657f 0000 f92f 0000 6497 0000 773a 0080
00000360: ec00 0000 4f3c 0000 45a0 0080 9629 0000
00000370: 9b04 0100 3e09 0000 ee24 0080 d395 0000
00000380: cda7 0000 4842 0080 e38b 0080 328c 0000
00000390: e307 0000 8164 0080 5788 0080 a131 0080
000003a0: 909b 0080 2818 0080 323d 0080 630f 0080
000003b0: 3773 0080 303b 0080 bca6 0000 3639 0080
000003c0: 037e 0080 fc37 0000 0330 0000 c2a5 0080
000003d0: 520b 0080 f18e 0080 b891 0000 5300 0000
000003e0: 9f3b 0080 4148 0000 b825 0000 e22e 0000
000003f0: e792 0080 ee89 0080 1a89 0000 c587 0080
0.008833122 -6.708e-42 -4.75e-41 8.269e-42 -4.1991e-41 -0.0005861237 -0.010176018 -0.0017473791
4.0894e-41 4.4477e-41 1.8077e-41 3.3612e-41 -2.1363e-41 2.9928e-41 -4.939e-41 1.6503e-41
-9.4359e-41 0.0063081537 5.4407e-41 0.016237022 -5.448e-41 -0.003587215 -2.9175e-41 -0.0023333372
0.000988079 7.62e-42 3.606e-42 1.2938e-41 -4.6845e-41 -8.911e-42 4.6844e-41 -0.0017225479
4.85e-42 -1.4829e-41 0.003182272 -0.00052093546 0.0012711514 1.9706e-41 2.0577e-41 -5.0734e-41
0.0068509406 2.8689e-41 -3.1389e-41 -2.1629e-41 4.8022e-41 5.5767e-41 -0.007041345 -1.9763e-41
0.0017815403 -1.4223e-41 5.970043e-08 -9.502e-41 -5.3373e-41 0.0034325432 0.0012583301 -2.0624e-41
5.4504e-41 5.4232e-41 -1.6185e-41 -2.938e-41 3.3491e-41 3.663e-42 -0.004004497 2.717e-42
-0.010617059 -2.8165e-41 5.3305e-41 4.7242e-41 4.431e-41 0.0007702632 0.0058208397 -0.0022444937
3.265e-42 2.4043e-41 2.142e-41 2.179e-42 -5.489e-42 5.5535e-41 1.4794e-41 -2.983e-42
1.9744e-41 -0.003858101 -5.0999e-41 0.09219458 1.3937e-41 0.0019783576 4.8775e-41 0.0011122668
0.0035772664 4.488e-41 -2.2617e-41 -1.9627e-41 2.0689e-41 -6.0547e-41 7.629e-42 0.006713205
-4.1595e-41 -3.2196e-41 -0.013738992 -0.02231006 -0.004596235 3.5897e-41 -5.1943e-41 -4.1191e-41
0.1655964 3.1616e-41 -4.5677e-41 6.4659e-41 -7.5217e-41 -2.3302e-41 -0.14059561 -7.776e-42
-0.013524782 -1.812e-42 5.1772716e-08 1.994e-41 2.7341e-41 -0.0042178365 -0.00027710956 3.1333e-41
4.4425e-41 2.0839e-41 -1.1088e-41 -3.5854e-41 5.4174e-41 6.31e-42 0.0045974846 2.1848e-41
-4.235e-41 -4.138e-42 -5.356e-42 -5.1562e-41 -5.248e-41 -4.6725e-41 4.9478e-41 6.052e-41
5.188e-42 4.8774e-41 -4.07e-42 -6.0204e-41 -4.7112e-41 -4.4798e-41 1.9701e-41 1.1066e-41
5.4132e-41 4.7992e-41 -3.1085e-41 -3.2534e-41 5.3503e-41 -5.677e-41 1.5526e-41 4.69e-42
-3.1227e-41 -1.8014e-41 4.9603e-41 -1.7677e-41 -2.8165e-41 -5.0808e-41 -9.3652e-41 4.6387e-41
1.5092e-41 -2.0378e-41 8.485e-42 7.6402e-41 -1.663e-41 -5.3527e-41 2.3262e-41 -1.1914e-41
-4.0034e-41 -7.849e-42 -4.9498e-41 4.661e-42 -5.1718e-41 -4.9355e-41 5.305e-42 -5.54e-42
5.011e-41 1.165e-41 -5.279e-41 3.0579e-41 -2.951e-42 1.355e-42 3.0624e-41 6.0186e-41
-7.6201e-41 5.3266e-41 7.502e-41 3.2653e-41 2.4789e-41 -1.2557e-41 3.156e-42 -9.4509e-41
-3.1294e-41 9.78e-42 4.597e-41 -1.4009e-41 -5.918e-41 -4.801e-41 3.1755e-41 -1.0377e-41
-4.65e-42 -5.0974e-41 5.0656e-41 5.2771e-41 1.7108e-41 -8.279e-42 3.3347e-41 1.7763e-41
-2.0847e-41 1.8923e-41 5.3562e-41 1.1978e-41 4.57e-41 1.721e-41 5.4309e-41 -2.0973e-41
3.31e-43 2.1635e-41 -5.7494e-41 1.4918e-41 9.3488e-41 3.315e-42 -1.3248e-41 5.3747e-41
6.0196e-41 -2.3777e-41 -5.0182e-41 5.0293e-41 2.829e-42 -3.6054e-41 -4.891e-41 -1.7803e-41
-5.5805e-41 -8.666e-42 -2.1953e-41 -5.52e-42 -4.1331e-41 -2.1232e-41 5.9813e-41 -2.0523e-41
-4.5204e-41 2.0083e-41 1.7223e-41 -5.9463e-41 -4.061e-42 -5.1278e-41 5.2274e-41 1.16e-43
-2.1388e-41 2.592e-41 1.3531e-41 1.6818e-41 -5.2699e-41 -4.948e-41 4.9183e-41 -4.8705e-41

resBlock0.bn2.weight f4 [64]
00000000: ad47 4d3b d96e 8b3e e354 0080 181e 0080
00000010: 4033 0000 cbc9 14bd f777 0000 6c90 0000
00000020: 12e1 02bc 7801 3fbb c23b 0080 108a 0000
00000030: 4890 0000 941c 963e 960d 0000 80e0 9cbc
00000040: 6bee 633c 3dbc ed3e 7e7a 0000 d479 0080
00000050: f77d 0000 dc54 a8bc acbb 153f a7db 753e
00000060: 878c 0080 463e 9e3c d797 0080 270c 0000
00000070: 0c1b 0080 e521 cdbb fa34 0000 c81b 813d
00000080: c80c 0000 862d 0080 f10b 0080 4f8a 0080
00000090: c808 0080 b7fe c73e 1f0c 0080 c99e 963c
000000a0: 3a26 0000 138f c7bb 6628 0000 acba 073f
000000b0: a237 0000 00cb bc3c 5790 cabc 88b1 4ebc
000000c0: e0a3 613c 2379 0000 c72c 0000 63a6 723a
000000d0: 747f 0080 3514 0000 eb41 0000 f8ab 0c3d
000000e0: db72 0080 0d90 0080 6f0e 413b 9230 0000
000000f0: f624 ce3c e489 0080 0f0b 0080 21eb 49bd
0.003132324 0.27233008 -3.0452e-41 -1.0796e-41 1.8385e-41 -0.036325257 4.3035e-41 5.1809e-41
-0.007988231 -0.0029145163 -2.1437e-41 4.9527e-41 5.1758e-41 0.29318678 4.874e-42 -0.019150019
0.013911824 0.46432677 4.3942e-41 -4.3704e-41 4.5188e-41 -0.020548277 0.5848949 0.24009572
-5.0412e-41 0.019316804 -5.447e-41 4.36e-42 -9.703e-42 -0.006260144 1.9004e-41 0.06304127
4.585e-42 -1.6331e-41 -4.284e-42 -4.9616e-41 -3.15e-42 0.3906152 -4.348e-42 0.018386262
1.3713e-41 -0.006090054 1.4492e-41 0.53019214 1.9957e-41 0.023046017 -0.02472703 -0.012615569
0.013771981 4.3456e-41 1.6063e-41 0.0009256361 -4.5722e-41 7.249e-42 2.3647e-41 0.03434369
-4.1202e-41 -5.1676e-41 0.0029458066 1.7424e-41 0.025164109 -4.9466e-41 -3.967e-42 -0.049296502

resBlock0.bn2.bias f4 [64]
00000000: ef28 caba feeb b73d 5180 0080 58a1 2080
00000010: 325b 5800 ddaf 13bc 14af 0080 8824 2780
00000020: f911 8b3c 365e 8d3c 3038 0080 9219 0080
00000030: a403 0080 ad9e 1b3e 2217 0080 eef0 ce3c
00000040: a2e0 153c ca6e 823e fe0a 2d80 2d88 0080
00000050: 0665 0080 74a2 3e3c b1b9 453e 3a92 333d
00000060: 4b16 0800 5abc 0d3c 3737 0080 0456 0080
00000070: 269f 0080 14cc 1a3b 3e7c 0080 294d 043c
00000080: a152 0080 c6c0 0780 714c 0080 4705 0080
00000090: 8c0a 0080 ec4e a83d 7f9b 0080 6225 3b3c
000000a0: f731 0080 6533 3b3a f04f 0080 871d 6e3e
000000b0: 2571 0280 17ab 5f3c 80ba d53b 6933 533c
000000c0: 5fe1 28ba 8ecd 0b00 ab54 0080 9fcb 82bb
000000d0: da7f 0080 568c 0080 3d40 0180 1be0 433c
000000e0: 7c3d 0880 ca14 2480 0ff4 2ebb 1158 0080
000000f0: 4b99 61bb 583f 0080 9524 0600 3d3f d53a
-0.0015423576 0.08980559 -4.6031e-41 -2.996615e-39 8.114238e-39 -0.009014097 -6.2806e-41 -3.594689e-39
0.016976343 0.017256837 -2.0156e-41 -9.173e-42 -1.306e-42 0.15197249 -8.298e-42 0.025261369
0.009147795 0.2547515 -4.13654e-39 -4.885e-41 -3.624e-41 0.0116354115 0.19309117 0.043840624
7.42681e-40 0.008650864 -1.9807e-41 -3.0857e-41 -5.7092e-41 0.0023620175 -4.457e-41 0.008075037
-2.9642e-41 -7.12003e-40 -2.7422e-41 -1.893e-42 -3.784e-42 0.08218178 -5.5781e-41 0.011422487
-1.7924e-41 0.0007141142 -2.8676e-41 0.23253451 -2.2426e-40 0.013651631 0.0065224767 0.012890675
-0.00064422743 1.08393e-39 -3.0373e-41 -0.0039915587 -4.5864e-41 -5.0343e-41 -1.1488e-40 0.011955286
-7.5674e-40 -3.313536e-39 -0.0026695763 -3.1592e-41 -0.0034423645 -2.2723e-41 5.64136e-40 0.0016269457

resBlock0.bn2.running_mean f4 [64]
00000000: 92bc 7839 a8f5 bebc 1c0f 0000 f53f 0000
00000010: 0417 0000 8022 cc3b 9400 0000 4903 0000
00000020: 9eb3 3dbb 71a8 a8ba 1d47 0080 5515 0000
00000030: 0a2b 0080 2c23 0a3d 972e 0080 261a 0cbc
00000040: 7f20 fd3b 92ec a33b 6743 0080 244a 0080
00000050: 1a15 0000 b09f f93a 33b0 46bd d834 0bbc
00000060: c71a 0080 771e 1eba 822e 0080 008f 0080
00000070: 9847 0000 775b 173b ce19 0080 15d0 59bb
00000080: 6c28 0080 771d 0000 b10b 0000 a92e 0080
00000090: 7e21 0000 8750 26bd b96e 0080 3ac2 b53b
000000a0: 7c2f 0000 58bc b1ba c106 0000 b48e 09bb
000000b0: ec00 0080 3510 42bb d398 683a 7d3c 14bc
000000c0: 4a67 07bb b30a 0080 4a08 0080 00df a63a
000000d0: 4550 0000 a55d 0000 346d 0080 cf6c 52ba
000000e0: 2939 0000 2c09 0000 270b fa3b 1f05 0000
000000f0: 2c03 943b ed30 0000 1377 0080 3476 dfbb
0.00023721371 -0.023310497 5.42e-42 2.2943e-41 8.256e-42 0.0062296987 2.07e-43 1.178e-42
-0.0028946172 -0.0012867582 -2.551e-41 7.652e-42 -1.544e-41 0.03372495 -1.6713e-41 -0.008551156
0.007724821 0.0050025666 -2.418e-41 -2.6597e-41 7.57e-42 0.0019044783 -0.04850788 -0.008496486
-9.606e-42 -0.00060317613 -1.6684e-41 -5.1299e-41 2.5683e-41 0.0023095289 -9.257e-42 -0.0033235599
-1.45e-41 1.057e-41 4.194e-42 -1.6739e-41 1.2015e-41 -0.04060414 -3.972e-41 0.0055468353
1.7034e-41 -0.0013560159 2.423e-42 -0.0020989599 -3.31e-43 -0.002961171 0.000887287 -0.009047625
-0.002066093 -3.838e-42 -2.974e-42 0.0012731254 2.8795e-41 3.3593e-41 -3.9175e-41 -0.0008027078
2.0505e-41 3.29e-42 0.007630724 1.837e-42 0.0045169797 1.7551e-41 -4.2716e-41 -0.006819511

resBlock0.bn2.running_var f4 [64]
00000000: 60eb b537 59d6 333b 0400 0000 0400 0000
00000010: 0400 0000 14dd 8038 0400 0000 0400 0000
00000020: 2937 d837 c553 2138 0400 0000 0400 0000
00000030: 0400 0000 4c6f 393b 0400 0000 a6c9 0639
00000040: 4a8b 4338 5c40 c13c 0400 0000 0400 0000
00000050: 0400 0000 5eb8 8c38 b8aa ce3b 43ed 673a
00000060: 0400 0000 3993 f537 0400 0000 0400 0000
00000070: 0400 0000 65e2 3838 0400 0000 47fb 4639
00000080: 0400 0000 0400 0000 0400 0000 0400 0000
00000090: 0400 0000 6093 7d3b 0400 0000 f260 7a38
000000a0: 0400 0000 e7f7 1f38 0400 0000 ec3b a83b
000000b0: 0400 0000 ff45 9d38 9a4a 9d38 6707 c438
000000c0: fcaa 3438 0400 0000 0400 0000 d56f 1636
000000d0: 0400 0000 0400 0000 0400 0000 0073 0139
000000e0: 0400 0000 0400 0000 24ae 3137 0400 0000
000000f0: e8aa 6437 0400 0000 0400 0000 0ac5 2738
2.1686486e-05 0.0027440994 6e-45 6e-45 6e-45 6.1446946e-05 6e-45 6e-45
2.5774892e-05 3.8463408e-05 6e-45 6e-45 6e-45 0.0028295098 6e-45 0.00012854356
4.6621346e-05 0.02359026 6e-45 6e-45 6e-45 6.710061e-05 0.0063069724 0.00088473054
6e-45 2.9274832e-05 6e-45 6e-45 6e-45 4.4079865e-05 6e-45 0.0001897636
6e-45 6e-45 6e-45 6e-45 6e-45 0.0038692579 6e-45 5.9694932e-05
6e-45 3.813943e-05 6e-45 0.0051340964 6e-45 7.499381e-05 7.500239e-05 9.347387e-05
4.3074586e-05 6e-45 6e-45 2.2416837e-06 6e-45 6e-45 6e-45 0.0001234524
6e-45 6e-45 1.0590567e-05 6e-45 1.3629651e-05 6e-45 6e-45 3.999941e-05

resBlock1.conv1.weight f4 [64, 64, 1, 1]
00000000: bb00 a13c fc50 c03b 9420 0000 c18b 0000
00000010: 9852 0080 d713 c3bb 1e3a 0000 2973 0000
00000020: b8f8 a13c 1918 b73c c23c 0080 0e38 0080
00000030: 7b24 0080 3b8a 50bb ba89 0000 a17e 67bc
00000040: 319f 3dbc 71f4 8a3c 5a33 0080 78a8 0080
00000050: e41a 0080 56de 403c 9e31 b33c 4a44 df3b
00000060: b82d 0080 8dc6 3ebb f116 0080 3137 0000
00000070: d9a6 0000 c78a ed3c 1d0c 0000 9585 84bb
00000080: cc10 0080 af91 0000 ea42 0080 2633 0000
00000090: d0a5 0080 941a c13b 395e 0080 89e0 7fbb
000000a0: 9a9e 0000 4963 033d e75e 0080 0db4 d93c
000000b0: 7d06 0080 1377 933c fc75 f8b9 281d 063d
000000c0: 5c64 9e3c 7a82 0080 c837 0000 a6ab 8ebc
000000d0: 3658 0000 a50b 0080 a543 0000 e053 38bc
000000e0: 3145 0000 1d32 0000 aa11 5abc 1421 0000
000000f0: 5ae0 823c 8807 0080 3b07 0080 4fae 1c3b
00000100: 270e 0080 1730 0000 d78d 0000 238c 0000
00000110: 019a 0080 be07 0000 f87c 0000 2357 0000
00000120: 2230 0000 c85b 0080 c194 0000 a38f 0080
00000130: 5561 0080 f50e 0000 7a22 0000 ac08 0000
00000140: 1713 0080 8e89 0000 1495 0000 de8f 0000
00000150: 0554 0000 ab50 0000 13a5 0000 0147 0000
00000160: 3b0b 0080 2816 0080 8890 0080 700a 0080
00000170: 3e03 0080 a189 0080 8764 0080 c436 0080
00000180: 4d8c 0000 2f35 0000 f754 0080 be27 0080
00000190: a92c 0080 b584 0000 8f37 0000 8e32 0080
000001a0: 5353 0000 9e1c 0080 c289 0000 eb0e 0000
000001b0: 4a75 0000 2879 0080 8657 0080 0996 0080
000001c0: 6106 0180 b25e 0080 7643 0080 7336 0080
000001d0: 9b94 0080 e939 0000 21a1 0000 a955 0000
000001e0: a484 0000 f425 0000 bf92 0000 6012 0080
000001f0: 0125 0000 5e8e 0080 5a59 0080 dd21 0080
00000200: 251c 0080 a651 0080 7d91 0000 7b58 0080
00000210: 5611 0080 b333 0000 ecb8 0080 b195 0000
00000220: fc20 0080 ee32 0000 c408 0100 fca8 0000
00000230: e396 0080 a472 0000 8457 0080 5c0e 0080
00000240: 1e28 0000 9e10 0080 641c 0000 7050 0000
00000250: c5af 0000 780b 0000 3b0a 0000 7d85 0000
00000260: 0955 0080 c57c 0000 2e01 0000 7358 0000
00000270: 2654 0080 3605 0100 ee9a 0000 af90 0000
00000280: e17a 0080 3da3 0080 ab1a 0000 b68a 0080
00000290: 5378 0080 d115 0080 c614 0080 9b03 0080
000002a0: 8c33 0080 f492 0080 a130 0000 e192 0080
000002b0: eb4d 0000 f94e 0000 03a4 0000 90a9 0080
000002c0: c257 0080 f24d 0000 e323 0080 4a0d 0080
000002d0: ec19 0080 8897 0080 a772 0000 9d06 0100
000002e0: 695d 0080 ab5f 0080 ff83 0000 4750 0000
000002f0: 7535 0000 8508 0180 105b 0080 1629 0000
00000300: 4a17 0000 334c 0000 2e32 0000 6b8b 0080
00000310: 0262 0080 3390 0080 392a 0080 3f20 0000
00000320: 080c 0080 ec34 0000 3c0d 0080 fd07 0000
00000330: d635 0080 6672 0000 3d5f 0000 1179 0000
00000340: 4e62 0000 e576 0080 4d19 0000 6489 0080
00000350: 637b 0080 8d06 0000 353b 0000 ce18 0080
00000360: 5876 0080 ab54 0000 6e47 0000 ab8a 0000
00000370: fe2a 0080 8230 0080 8d8f 0000 547e 0000
00000380: af31 0080 1f5e 0000 dc83 0000 fb5a 0000
00000390: 6385 0000 5e10 0080 7d4f 0000 d723 0000
000003a0: 639b 0080 b475 0080 c22c 0000 745a 0000
000003b0: 314f 0080 41b4 0080 a458 0080 488c 0000
000003c0: b608 0080 e477 0080 9450 0000 fe14 0080
000003d0: 488e 0080 883a 0080 d852 0000 1735 0000
000003e0: bd0b 0080 6ca6 0000 0431 0080 1751 0080
000003f0: b98a 0000 6181 0080 ea2b 0080 a58a 0000
0.019653669 0.005869029 1.1687e-41 5.0134e-41 -2.9629e-41 -0.005953293 2.0849e-41 4.1312e-41
0.019771919 0.022350358 -2.1796e-41 -2.0109e-41 -1.3087e-41 -0.0031820673 4.9407e-41 -0.014129312
-0.011573599 0.016962262 -1.8421e-41 -6.0435e-41 -9.647e-42 0.011771759 0.021874245 0.0068135606
-1.6401e-41 -0.0029110045 -8.23e-42 1.9799e-41 5.9854e-41 0.028996838 4.345e-42 -0.0040442445
-6.026e-42 5.2261e-41 -2.4004e-41 1.8349e-41 -5.9482e-41 0.005893061 -3.3801e-41 -0.0039043745
5.6896e-41 0.032077108 -3.4045e-41 0.026575113 -2.328e-42 0.018001115 -0.0004739015 0.03274265
0.019334964 -4.6806e-41 2.001e-41 -0.017415833 3.1644e-41 -4.177e-42 2.4266e-41 -0.011250466
2.4821e-41 1.7977e-41 -0.0133098755 1.1866e-41 0.01597612 -2.702e-42 -2.594e-42 0.0023907607
-5.077e-42 1.7251e-41 5.0883e-41 5.0272e-41 -5.5246e-41 2.777e-42 4.483e-41 3.1259e-41
1.7267e-41 -3.2925e-41 5.3363e-41 -5.1527e-41 -3.4916e-41 5.366e-42 1.2368e-41 3.111e-42
-6.848e-42 4.9345e-41 5.3479e-41 5.161e-41 3.014e-41 2.8938e-41 5.9217e-41 2.5471e-41
-4.029e-42 -7.948e-42 -5.1848e-41 -3.744e-42 -1.163e-42 -4.9372e-41 -3.6062e-41 -1.9646e-41
5.033e-41 1.9079e-41 -3.048e-41 -1.4257e-41 -1.6021e-41 4.7606e-41 1.993e-41 -1.8136e-41
2.9891e-41 -1.0266e-41 4.9418e-41 5.352e-42 4.2075e-41 -4.3463e-41 -3.1397e-41 -5.3822e-41
-9.4124e-41 -3.397e-41 -2.42e-41 -1.9533e-41 -5.331e-41 2.0774e-41 5.7802e-41 3.0729e-41
4.7582e-41 1.3615e-41 5.2643e-41 -6.592e-42 1.3275e-41 -5.1072e-41 -3.2053e-41 -1.2148e-41
-1.0096e-41 -2.929e-41 5.2191e-41 -3.1741e-41 -6.219e-42 1.8546e-41 -6.6337e-41 5.3699e-41
-1.1833e-41 1.827e-41 9.498e-41 6.062e-41 -5.4128e-41 4.1125e-41 -3.1395e-41 -5.151e-42
1.4391e-41 -5.961e-42 1.0185e-41 2.8856e-41 6.3054e-41 4.114e-42 3.67e-42 4.7887e-41
-3.0505e-41 4.4759e-41 4.23e-43 3.173e-41 -3.0187e-41 9.3705e-41 5.5578e-41 5.1903e-41
-4.408e-41 -5.8559e-41 9.567e-42 -4.976e-41 -4.3164e-41 -7.826e-42 -7.452e-42 -1.293e-42
-1.8492e-41 -5.2717e-41 1.7445e-41 -5.269e-41 2.7952e-41 2.833e-41 5.8836e-41 -6.0828e-41
-3.1482e-41 2.7962e-41 -1.2874e-41 -4.767e-42 -9.299e-42 -5.4359e-41 4.113e-41 9.4208e-41
-3.3509e-41 -3.4319e-41 4.7351e-41 2.8798e-41 1.9177e-41 -9.4892e-41 -3.2667e-41 1.4739e-41
8.355e-42 2.7335e-41 1.8001e-41 -5.0014e-41 -3.5159e-41 -5.1729e-41 -1.5147e-41 1.1568e-41
-4.316e-42 1.8985e-41 -4.748e-42 2.866e-42 -1.9313e-41 4.1038e-41 3.4165e-41 4.343e-41
3.5265e-41 -4.2651e-41 9.076e-42 -4.9286e-41 -4.4263e-41 2.35e-42 2.124e-41 -8.898e-42
-4.2454e-41 3.0373e-41 2.5624e-41 4.9745e-41 -1.5423e-41 -1.7401e-41 5.1496e-41 4.5318e-41
-1.7823e-41 3.3764e-41 4.7302e-41 3.2638e-41 4.785e-41 -5.871e-42 2.8515e-41 1.2857e-41
-5.5742e-41 -4.2224e-41 1.6056e-41 3.2448e-41 -2.8409e-41 -6.4663e-41 -3.1798e-41 5.0323e-41
-3.125e-42 -4.3009e-41 2.8906e-41 -7.53e-42 -5.1041e-41 -2.0997e-41 2.9719e-41 1.9045e-41
-4.211e-42 5.9701e-41 -1.7583e-41 -2.909e-41 4.9764e-41 -4.6412e-41 -1.5753e-41 4.9736e-41

resBlock1.bn1.weight f4 [64]
00000000: 709e 833d 607c 0000 cf24 0080 7722 0080
00000010: c825 0080 2c09 0080 570c 0000 4137 0000
00000020: bd46 0000 4f59 0080 ca42 0000 26c6 a3bd
00000030: a384 4c3e c675 0000 4f03 0000 9b7a 0000
00000040: 768a d13e b801 0000 ca0d 0000 f490 0080
00000050: efb6 0000 4e37 06be a914 0080 27df 903d
00000060: b517 0080 9128 0080 f291 0000 0ba9 0080
00000070: 5fe3 453d 470e 0000 16f4 0dbd 1d04 123d
00000080: 192a 0000 1f16 0080 7c1d 0000 04be f8bc
00000090: 9478 0000 5111 0000 d749 0080 f78d 0080
000000a0: 5253 0080 e418 0000 1a00 0080 0d82 3f3d
000000b0: 115a 0000 733f 0080 3123 0080 3730 0080
000000c0: ce2b 0080 542e 0080 2101 0080 4d1a 0080
000000d0: f507 0080 a20a 0000 0e24 0000 1970 0080
000000e0: 0d32 0080 6610 0080 0f33 0080 ee17 a7bc
000000f0: f184 0000 c4d9 4cbd 610e 0000 a6b7 0000
0.06426704 4.4617e-41 -1.3204e-41 -1.2364e-41 -1.3553e-41 -3.29e-42 4.427e-42 1.9821e-41
2.5376e-41 -3.2038e-41 2.396e-41 -0.07996778 0.19972472 4.2249e-41 1.187e-42 4.3983e-41
0.4092595 6.17e-43 4.947e-42 -5.2e-41 6.5624e-41 -0.13107035 -7.411e-42 0.07073813
-8.504e-42 -1.4552e-41 5.2355e-41 -6.0641e-41 0.04831254 5.122e-42 -0.034656607 0.035648454
1.5102e-41 -7.936e-42 1.0577e-41 -0.030364044 4.3255e-41 6.212e-42 -2.6489e-41 -5.0927e-41
-2.989e-41 8.929e-42 -3.6e-44 0.046754885 3.231e-41 -2.2761e-41 -1.2624e-41 -1.7296e-41
-1.5714e-41 -1.662e-41 -4.05e-43 -9.435e-42 -2.854e-42 3.814e-42 1.2934e-41 -4.0213e-41
-1.7955e-41 -5.883e-42 -1.8316e-41 -0.020397153 4.769e-41 -0.050012365 5.158e-42 6.588e-41

resBlock1.bn1.bias f4 [64]
00000000: 6f8b 67b9 0778 0080 ce5a 0080 ba28 0080
00000010: 233a 0680 702c 0080 6a85 0080 5528 0080
00000020: 799d 0080 0d3b 0080 fd39 0080 9077 b53c
00000030: c3b5 603c 6047 0080 536b 0080 b318 0080
00000040: 9c43 413e 5323 0080 6bac 0080 da07 0080
00000050: 6926 0080 813f 803c c72f 0080 b192 d33c
00000060: 7d86 0080 8aa9 0080 7e3d 0080 be60 0080
00000070: d62b 443b 6698 0080 ec5d 20bc 8eda f93a
00000080: 82a0 0080 0a7b 0080 b718 0080 6b02 ad3b
00000090: 1953 0080 509a 0080 8056 0080 aa4a 0080
000000a0: 0f44 0080 790a 0080 dc9c 0080 59b6 afbc
000000b0: 3d8c 0080 ed7b 0080 dd86 0080 2968 0080
000000c0: 9952 0080 1081 0080 d619 0080 116a 0080
000000d0: 5071 0080 b582 0080 e751 0080 198a 0080
000000e0: 532b 0080 289e 0080 bc51 0080 58c3 3c3c
000000f0: 4e29 0080 6c22 9a3a d2a0 0080 962c 0080
-0.0002208182 -4.3058e-41 -3.2575e-41 -1.461e-41 -5.71869e-40 -1.5941e-41 -4.786e-41 -1.4468e-41
-5.649e-41 -2.1183e-41 -2.0802e-41 0.022151738 0.01371521 -2.5605e-41 -3.85e-41 -8.86e-42
0.18873447 -1.2672e-41 -6.1852e-41 -2.817e-42 -1.3779e-41 0.015655281 -1.7139e-41 0.025826784
-4.8245e-41 -6.0819e-41 -2.2059e-41 -3.4705e-41 0.0029933355 -5.467e-41 -0.009788018 0.0019062327
-5.758e-41 -4.4138e-41 -8.866e-42 0.0052798293 -2.981e-41 -5.5357e-41 -3.103e-41 -2.6784e-41
-2.4415e-41 -3.757e-42 -5.627e-41 -0.021449255 -5.0308e-41 -4.4456e-41 -4.838e-41 -3.7366e-41
-2.963e-41 -4.6299e-41 -9.268e-42 -3.805e-41 -4.0649e-41 -4.6889e-41 -2.9381e-41 -4.954e-41
-1.5542e-41 -5.6736e-41 -2.9321e-41 0.011521183 -1.4817e-41 0.0011759526 -5.7691e-41 -1.5994e-41

resBlock1.bn1.running_mean f4 [64]
00000000: e11f 8e3d cd6a 0100 e557 0080 8e8c 0000
00000010: 7347 0000 fc44 0180 59ae 0000 9d79 0000
00000020: 0d58 0080 7477 0000 e7fb 0180 25c7 a9bd
00000030: 1e2e debc 460e 0080 a21d 0080 e235 0080
00000040: 375a 3f3e 8af1 0000 3a16 0100 2822 0000
00000050: 3a71 0080 ea4d 78bd 0c42 0000 a939 b63c
00000060: 9824 0080 ab29 0100 f92b 0000 6b38 0000
00000070: 0592 09bd 8951 0000 85fc 103d bed6 4c3d
00000080: b20f 0000 4bc9 0080 9129 0000 9678 06bd
00000090: 8b5f 0000 8761 0000 6144 0000 35f8 0000
000000a0: 9524 0080 fa73 0000 0115 0000 6853 92bc
000000b0: 961f 0080 dc35 0000 98c0 0080 acbb 0000
000000c0: 9d57 0180 eab8 0000 1483 0000 4aac 0000
000000d0: f11d 0000 33c1 0080 5780 0080 0ddd 0000
000000e0: cfaf 0080 d340 0080 9e97 0000 a524 57bc
000000f0: 7a13 0000 8b83 8cbd a96c 0000 fd84 0180
0.06939674 1.30148e-40 -3.153e-41 5.0422e-41 2.5631e-41 -1.16582e-40 6.2544e-41 4.3627e-41
-3.1587e-41 4.2852e-41 -1.82201e-40 -0.08289937 -0.0271216 -5.12e-42 -1.063e-41 -1.933e-41
0.18686758 8.6648e-41 9.9809e-41 1.2253e-41 -4.0618e-41 -0.06062118 2.3693e-41 0.022244291
-1.3127e-41 1.06783e-40 1.5774e-41 2.0239e-41 -0.03358652 2.925e-41 0.03539707 0.05000948
5.63e-42 -7.221e-41 1.4911e-41 -0.032829843 3.4274e-41 3.4986e-41 2.453e-41 8.904e-41
-1.3123e-41 4.1605e-41 7.535e-42 -0.017862037 -1.1331e-41 1.9321e-41 -6.909e-41 6.7324e-41
-1.23265e-40 6.6335e-41 4.7022e-41 6.1806e-41 1.0741e-41 -6.9307e-41 -4.604e-41 7.9298e-41
-6.3068e-41 -2.3255e-41 5.439e-41 -0.013131295 6.987e-42 -0.06861027 3.898e-41 -1.39543e-40

resBlock1.bn1.running_var f4 [64]
00000000: 3c81 8f3a 0400 0000 0400 0000 0400 0000
00000010: 0400 0000 0400 0000 0400 0000 0400 0000
00000020: 0400 0000 0400 0000 0400 0000 7121 8a3a
00000030: 14c3 363c 0400 0000 0400 0000 0400 0000
00000040: 39a2 943e 0400 0000 0400 0000 0400 0000
00000050: 0400 0000 455a 2c3b 0400 0000 17b2 0f3b
00000060: 0400 0000 0400 0000 0400 0000 0400 0000
00000070: 44a2 053b 0400 0000 37c6 013c 294b 473b
00000080: 0400 0000 0400 0000 0400 0000 8b47 e43a
00000090: 0400 0000 0400 0000 0400 0000 0400 0000
000000a0: 0400 0000 0400 0000 0400 0000 ea0d eb3b
000000b0: 0400 0000 0400 0000 0400 0000 0400 0000
000000c0: 0400 0000 0400 0000 0400 0000 0400 0000
000000d0: 0400 0000 0400 0000 0400 0000 0400 0000
000000e0: 0400 0000 0400 0000 0400 0000 7631 a03a
000000f0: 0400 0000 9c50 723a 0400 0000 0400 0000
0.0010948549 6e-45 6e-45 6e-45 6e-45 6e-45 6e-45 6e-45
6e-45 6e-45 6e-45 0.0010538531 0.011154909 6e-45 6e-45 6e-45
0.29030016 6e-45 6e-45 6e-45 6e-45 0.0026298922 6e-45 0.0021926218
6e-45 6e-45 6e-45 6e-45 0.0020390907 6e-45 0.007920793 0.003040979
6e-45 6e-45 6e-45 0.0017416341 6e-45 6e-45 6e-45 6e-45
6e-45 6e-45 6e-45 0.0071732895 6e-45 6e-45 6e-45 6e-45
6e-45 6e-45 6e-45 6e-45 6e-45 6e-45 6e-45 6e-45
6e-45 6e-45 6e-45 0.0012221772 6e-45 0.0009243579 6e-45 6e-45
